data/model.ckpt (torch_old, 1160 bytes, 3 tensors)

layer1.weight f4 [10, 8]
00000000: 4e59 48be 3dcf 01be 230c c83e 6bd2 b93f
00000010: c3c3 2bbf 9e64 29bf 0e30 0bbf 0937 7dbf
00000020: a359 823e 8b30 d93d 6635 f63e 6413 ec3f
00000030: d6df 59be 480e 11be e622 023f 6a4d 04be
00000040: 9574 78be 1e99 93be 52c7 7dbf 92ed adbf
00000050: c349 8dbe 228c 87bd 2dd2 0e3d 4679 843e
00000060: 9bfb 26bf 7b8a bbbe e34e 98be 1572 543d
00000070: b561 debf 225d dbbf c0d8 ddbf 20d9 d2bf
00000080: 2871 d7be c6d6 6fbd 6e42 1bbf f0ea 0dbf
00000090: 0fff 92be 321f 6a3c 3bcb adbe 7950 3fbe
000000a0: e30a 91bf 4423 97bf 5d6b 90bf 77e4 80bf
000000b0: 447c 08bf 103e 2fbe 7e4b debe fbc1 09bf
000000c0: db34 08bf 2741 6fbe 4cfa 09bf ee5d 4fbe
000000d0: 31d7 7bbf 9701 74bf 8c4c 51bf ea08 75bf
000000e0: 9221 a8bd 8bb9 f1be 65cd c33e 8daf 253f
000000f0: 6612 9cbf 883a b5bf 0256 95bf 8bcd c6bf
00000100: 1621 53bd d411 13be 029a 37be bb80 483e
00000110: 15b4 92be 4d27 b0bb cbb2 50bd e7df 7ebd
00000120: 44e1 cabf 1451 00c0 a958 d6bf 0837 85bf
00000130: 9f2e 48bf ab5b 05bf 6978 cb3d 166b 0bbf
-0.19565317 -0.12676711 0.3907176 1.451734 -0.67095584 -0.66169155 -0.543702 -0.989121
0.25459012 0.10604962 0.48087615 1.8443418 -0.21276793 -0.14165604 0.508345 -0.12920156
-0.24263223 -0.28827757 -0.99132264 -1.3588126 -0.27595338 -0.06618525 0.034868408 0.25873774
-0.6522767 -0.3662909 -0.29747686 0.05186661 -1.7373568 -1.7137797 -1.7331772 -1.6472511
-0.4207852 -0.058554433 -0.6064824 -0.5543661 -0.2871022 0.014289664 -0.33944115 -0.18683042
-1.1331447 -1.1807637 -1.1282765 -1.0069722 -0.53314614 -0.17113519 -0.4341697 -0.53811616
-0.5320565 -0.23364697 -0.5389755 -0.20250675 -0.9837523 -0.95314926 -0.81757426 -0.95716727
-0.08209528 -0.4721187 0.3824264 0.64720994 -1.2193115 -1.4158487 -1.1666873 -1.5531477
-0.051545225 -0.1436227 -0.17929843 0.19580357 -0.28653017 -0.005375779 -0.05095176 -0.06222525
-1.5849996 -2.0049486 -1.6745807 -1.0407419 -0.7819614 -0.52093 0.09935076 -0.54460275

layer1.bias f4 [10]
00000000: 666c 69bf 722b 2cbf 5083 e33e 6247 a8bf
00000010: b0b4 48be 6dc0 c9bf fb9d cdbf 3340 73bf
00000020: ae59 f1bc 64e6 1ec0
-0.9118103 -0.6725379 0.4443612 -1.3146784 -0.19600177 -1.5761849 -1.6063837 -0.95019835
-0.029461708 -2.482812

layer2.weight f4 [1, 10]
00000000: 70a7 673e c827 fa3e d1f6 3ebd b512 45bf
00000010: 3a87 343e 3f65 0540 84e1 39c0 d9da 26be
00000020: 1ba7 133e 0bed d63f
0.22622466 0.48858476 -0.0466221 -0.7698167 0.1762971 2.0843046 -2.9043894 -0.16294421
0.14419214 1.679109
